Model: "Test-CNN-Ext-Model"
┏━━━━━━━━━━━━━━━━━━━━━┳━━━━━━━━━━━━━━━━━━━┳━━━━━━━━━━━━┳━━━━━━━━━━━━━━━━━━━┓
┃ Layer (type)        ┃ Output Shape      ┃    Param # ┃ Connected to      ┃
┡━━━━━━━━━━━━━━━━━━━━━╇━━━━━━━━━━━━━━━━━━━╇━━━━━━━━━━━━╇━━━━━━━━━━━━━━━━━━━┩
│ Mags-Input          │ (None, 4096, 1)   │          0 │ -                 │
│ (InputLayer)        │                   │            │                   │
├─────────────────────┼───────────────────┼────────────┼───────────────────┤
│ conv1d (Conv1D)     │ (None, 1024, 32)  │        544 │ Mags-Input[0][0]  │
├─────────────────────┼───────────────────┼────────────┼───────────────────┤
│ average_pooling1d   │ (None, 256, 32)   │          0 │ conv1d[0][0]      │
│ (AveragePooling1D)  │                   │            │                   │
├─────────────────────┼───────────────────┼────────────┼───────────────────┤
│ conv1d_1 (Conv1D)   │ (None, 64, 32)    │     16,416 │ average_pooling1… │
├─────────────────────┼───────────────────┼────────────┼───────────────────┤
│ Ext-Input           │ (None, 2, 1)      │          0 │ -                 │
│ (InputLayer)        │                   │            │                   │
├─────────────────────┼───────────────────┼────────────┼───────────────────┤
│ Mags-Reshape        │ (None, 2048)      │          0 │ conv1d_1[0][0]    │
│ (Flatten)           │                   │            │                   │
├─────────────────────┼───────────────────┼────────────┼───────────────────┤
│ Ext-Reshape         │ (None, 2)         │          0 │ Ext-Input[0][0]   │
│ (Flatten)           │                   │            │                   │
├─────────────────────┼───────────────────┼────────────┼───────────────────┤
│ DNN-Input           │ (None, 2050)      │          0 │ Mags-Reshape[0][… │
│ (Concatenate)       │                   │            │ Ext-Reshape[0][0] │
├─────────────────────┼───────────────────┼────────────┼───────────────────┤
│ dropout (Dropout)   │ (None, 2050)      │          0 │ DNN-Input[0][0]   │
├─────────────────────┼───────────────────┼────────────┼───────────────────┤
│ dense (Dense)       │ (None, 32)        │     65,632 │ dropout[0][0]     │
├─────────────────────┼───────────────────┼────────────┼───────────────────┤
│ Out-Grp-1 (Dense)   │ (None, 11)        │        363 │ dense[0][0]       │
├─────────────────────┼───────────────────┼────────────┼───────────────────┤
│ Output              │ (None, 11)        │          0 │ Out-Grp-1[0][0]   │
│ (OutputLayerConcat) │                   │            │                   │
└─────────────────────┴───────────────────┴────────────┴───────────────────┘
 Total params: 82,955 (324.04 KB)
 Trainable params: 82,955 (324.04 KB)
 Non-trainable params: 0 (0.00 B)
Epoch 1/10
200/200 - 3s - 17ms/step - loss: 0.1399 - mse: 0.0601
Epoch 2/10
200/200 - 2s - 12ms/step - loss: 0.0862 - mse: 0.0268
…
