Model: "Test-CNN-Ext-Model"
┏━━━━━━━━━━━━━━━━━━━━━┳━━━━━━━━━━━━━━━━━━━┳━━━━━━━━━━━━┳━━━━━━━━━━━━━━━━━━━┓
┃ Layer (type)        ┃ Output Shape      ┃    Param # ┃ Connected to      ┃
┡━━━━━━━━━━━━━━━━━━━━━╇━━━━━━━━━━━━━━━━━━━╇━━━━━━━━━━━━╇━━━━━━━━━━━━━━━━━━━┩
│ Mags-Input          │ (None, 1024, 1)   │          0 │ -                 │
│ (InputLayer)        │                   │            │                   │
├─────────────────────┼───────────────────┼────────────┼───────────────────┤
│ CNN-0 (Conv1D)      │ (None, 86, 32)    │        544 │ Mags-Input[0][0]  │
├─────────────────────┼───────────────────┼────────────┼───────────────────┤
│ CNN-1 (Conv1D)      │ (None, 8, 32)     │     16,416 │ CNN-0[0][0]       │
├─────────────────────┼───────────────────┼────────────┼───────────────────┤
│ Ext-Input           │ (None, 2, 1)      │          0 │ -                 │
│ (InputLayer)        │                   │            │                   │
├─────────────────────┼───────────────────┼────────────┼───────────────────┤
│ Mags-Reshape        │ (None, 256)       │          0 │ CNN-1[0][0]       │
│ (Flatten)           │                   │            │                   │
├─────────────────────┼───────────────────┼────────────┼───────────────────┤
│ Ext-Reshape         │ (None, 2)         │          0 │ Ext-Input[0][0]   │
│ (Flatten)           │                   │            │                   │
├─────────────────────┼───────────────────┼────────────┼───────────────────┤
│ DNN-Input           │ (None, 258)       │          0 │ Mags-Reshape[0][… │
│ (Concatenate)       │                   │            │ Ext-Reshape[0][0] │
├─────────────────────┼───────────────────┼────────────┼───────────────────┤
│ Hidden-0 (Dense)    │ (None, 32)        │      8,288 │ DNN-Input[0][0]   │
├─────────────────────┼───────────────────┼────────────┼───────────────────┤
│ Output (Dense)      │ (None, 8)         │        264 │ Hidden-0[0][0]    │
└─────────────────────┴───────────────────┴────────────┴───────────────────┘
 Total params: 25,512 (99.66 KB)
 Trainable params: 25,512 (99.66 KB)
 Non-trainable params: 0 (0.00 B)
Epoch 1/10
800/800 - 3s - 4ms/step - loss: 0.1022 - mse: 0.0402
Epoch 2/10
800/800 - 2s - 3ms/step - loss: 0.0616 - mse: 0.0175
Epoch 3/10
800/800 - 2s - 3ms/step - loss: 0.0557 - mse: 0.0153
Epoch 4/10
…
