Model: "Test-CNN-Ext-Model"
┏━━━━━━━━━━━━━━━━━━━━━┳━━━━━━━━━━━━━━━━━━━┳━━━━━━━━━━━━┳━━━━━━━━━━━━━━━━━━━┓
┃ Layer (type)        ┃ Output Shape      ┃    Param # ┃ Connected to      ┃
┡━━━━━━━━━━━━━━━━━━━━━╇━━━━━━━━━━━━━━━━━━━╇━━━━━━━━━━━━╇━━━━━━━━━━━━━━━━━━━┩
│ Mags-Input          │ (None, 1024, 1)   │          0 │ -                 │
│ (InputLayer)        │                   │            │                   │
├─────────────────────┼───────────────────┼────────────┼───────────────────┤
│ conv1d (Conv1D)     │ (None, 256, 32)   │        544 │ Mags-Input[0][0]  │
├─────────────────────┼───────────────────┼────────────┼───────────────────┤
│ average_pooling1d   │ (None, 64, 32)    │          0 │ conv1d[0][0]      │
│ (AveragePooling1D)  │                   │            │                   │
├─────────────────────┼───────────────────┼────────────┼───────────────────┤
│ conv1d_1 (Conv1D)   │ (None, 16, 32)    │     16,416 │ average_pooling1… │
├─────────────────────┼───────────────────┼────────────┼───────────────────┤
│ Ext-Input           │ (None, 2, 1)      │          0 │ -                 │
│ (InputLayer)        │                   │            │                   │
├─────────────────────┼───────────────────┼────────────┼───────────────────┤
│ Mags-Reshape        │ (None, 512)       │          0 │ conv1d_1[0][0]    │
│ (Flatten)           │                   │            │                   │
├─────────────────────┼───────────────────┼────────────┼───────────────────┤
│ Ext-Reshape         │ (None, 2)         │          0 │ Ext-Input[0][0]   │
│ (Flatten)           │                   │            │                   │
├─────────────────────┼───────────────────┼────────────┼───────────────────┤
│ DNN-Input           │ (None, 514)       │          0 │ Mags-Reshape[0][… │
│ (Concatenate)       │                   │            │ Ext-Reshape[0][0] │
├─────────────────────┼───────────────────┼────────────┼───────────────────┤
│ dense (Dense)       │ (None, 32)        │     16,480 │ DNN-Input[0][0]   │
├─────────────────────┼───────────────────┼────────────┼───────────────────┤
│ Output              │ (None, 10)        │        330 │ dense[0][0]       │
│ (OutputLayer)       │                   │            │                   │
└─────────────────────┴───────────────────┴────────────┴───────────────────┘
 Total params: 33,770 (131.91 KB)
 Trainable params: 33,770 (131.91 KB)
 Non-trainable params: 0 (0.00 B)
Epoch 1/10
800/800 - 5s - 6ms/step - loss: 0.0885 - mse: 0.0329
Epoch 2/10
800/800 - 4s - 5ms/step - loss: 0.0543 - mse: 0.0151
…
